…
2023-08-02 09:55:28,672 INFO: Number of test images in BSD100: 100
2023-08-02 09:55:28,677 INFO: Dataset [PairedImageDataset] - Urban100 is built.
2023-08-02 09:55:28,677 INFO: Number of test images in Urban100: 100
2023-08-02 09:55:28,682 INFO: Dataset [PairedImageDataset] - Manga109 is built.
2023-08-02 09:55:28,682 INFO: Number of test images in Manga109: 109
2023-08-02 09:55:28,702 INFO: Network [GLAN] is created.
2023-08-02 09:55:35,012 INFO: Network: GLAN, with parameters: 335,952
2023-08-02 09:55:35,012 INFO: GLAN(
  (sub_mean): MeanShift(3, 3, kernel_size=(1, 1), stride=(1, 1))
  (head): Conv2d(3, 40, kernel_size=(3, 3), stride=(1, 1), padding=(1, 1))
  (body): ModuleList(
    (0): MAB(
      (HAB): HAB(
        (norm): LayerNorm()
        (conv_first): Conv2d(40, 80, kernel_size=(1, 1), stride=(1, 1))
        (PFCA): PFCA(
          (avg_pool): AdaptiveAvgPool2d(output_size=1)
          (sigmoid): Sigmoid()
        )
        (PFSA): PFSA(
          (sigmoid): Sigmoid()
        )
        (X7): Conv2d(40, 40, kernel_size=(7, 7), stride=(1, 1), padding=(3, 3), groups=40)
        (conv_last): Conv2d(40, 40, kernel_size=(1, 1), stride=(1, 1))
        (sigmoid): Sigmoid()
      )
      (LFE): MLP(
        (norm): LayerNorm()
        (fc1): Conv2d(40, 80, kernel_size=(1, 1), stride=(1, 1))
        (act): SimpleGate()
        (fc2): Conv2d(40, 40, kernel_size=(1, 1), stride=(1, 1))
      )
      (LKA): GroupGLKA(
        (norm): LayerNorm()
        (LKA7): Conv2d(40, 40, kernel_size=(7, 7), stride=(1, 1), padding=(9, 9), dilation=(3, 3), groups=40)
        (LKA5): Conv2d(40, 40, kernel_size=(5, 5), stride=(1, 1), padding=(4, 4), dilation=(2, 2), groups=40)
        (conv2): Conv2d(40, 40, kernel_size=(5, 5), stride=(1, 1), padding=(2, 2), groups=40)
        (conv3): Conv2d(40, 40, kernel_size=(9, 9), stride=(1, 1), padding=(4, 4), groups=40)
        (conv4): Conv2d(40, 40, kernel_size=(1, 1), stride=(1, 1))
        (conv5): Conv2d(40, 40, kernel_size=(1, 1), stride=(1, 1))
        (conv6): Conv2d(80, 40, kernel_size=(1, 1), stride=(1, 1))
        (atten): LKA(
          (conv0): Conv2d(40, 40, kernel_size=(7, 7), stride=(1, 1), padding=(3, 3), groups=40)
          (conv_spatial): Conv2d(40, 40, kernel_size=(9, 9), stride=(1, 1), padding=(16, 16), dilation=(4, 4), groups=40)
          (conv1): Conv2d(40, 40, kernel_size=(1, 1), stride=(1, 1))
        )
        (act1): Hardswish()
        (act2): Tanh()
      )
      (LFE1): MLP(
        (norm): LayerNorm()
        (fc1): Conv2d(40, 80, kernel_size=(1, 1), stride=(1, 1))
        (act): SimpleGate()
        (fc2): Conv2d(40, 40, kernel_size=(1, 1), stride=(1, 1))
      )
    )
    (1): MAB(
      (HAB): HAB(
        (norm): LayerNorm()
        (conv_first): Conv2d(40, 80, kernel_size=(1, 1), stride=(1, 1))
        (PFCA): PFCA(
          (avg_pool): AdaptiveAvgPool2d(output_size=1)
          (sigmoid): Sigmoid()
        )
        (PFSA): PFSA(
          (sigmoid): Sigmoid()
        )
        (X7): Conv2d(40, 40, kernel_size=(7, 7), stride=(1, 1), padding=(3, 3), groups=40)
        (conv_last): Conv2d(40, 40, kernel_size=(1, 1), stride=(1, 1))
        (sigmoid): Sigmoid()
      )
      (LFE): MLP(
        (norm): LayerNorm()
        (fc1): Conv2d(40, 80, kernel_size=(1, 1), stride=(1, 1))
        (act): SimpleGate()
        (fc2): Conv2d(40, 40, kernel_size=(1, 1), stride=(1, 1))
      )
      (LKA): GroupGLKA(
        (norm): LayerNorm()
        (LKA7): Conv2d(40, 40, kernel_size=(7, 7), stride=(1, 1), padding=(9, 9), dilation=(3, 3), groups=40)
        (LKA5): Conv2d(40, 40, kernel_size=(5, 5), stride=(1, 1), padding=(4, 4), dilation=(2, 2), groups=40)
        (conv2): Conv2d(40, 40, kernel_size=(5, 5), stride=(1, 1), padding=(2, 2), groups=40)
        (conv3): Conv2d(40, 40, kernel_size=(9, 9), stride=(1, 1), padding=(4, 4), groups=40)
        (conv4): Conv2d(40, 40, kernel_size=(1, 1), stride=(1, 1))
        (conv5): Conv2d(40, 40, kernel_size=(1, 1), stride=(1, 1))
        (conv6): Conv2d(80, 40, kernel_size=(1, 1), stride=(1, 1))
        (atten): LKA(
          (conv0): Conv2d(40, 40, kernel_size=(7, 7), stride=(1, 1), padding=(3, 3), groups=40)
          (conv_spatial): Conv2d(40, 40, kernel_size=(9, 9), stride=(1, 1), padding=(16, 16), dilation=(4, 4), groups=40)
          (conv1): Conv2d(40, 40, kernel_size=(1, 1), stride=(1, 1))
        )
        (act1): Hardswish()
        (act2): Tanh()
      )
      (LFE1): MLP(
        (norm): LayerNorm()
        (fc1): Conv2d(40, 80, kernel_size=(1, 1), stride=(1, 1))
        (act): SimpleGate()
        (fc2): Conv2d(40, 40, kernel_size=(1, 1), stride=(1, 1))
      )
    )
    (2): MAB(
      (HAB): HAB(
        (norm): LayerNorm()
        (conv_first): Conv2d(40, 80, kernel_size=(1, 1), stride=(1, 1))
        (PFCA): PFCA(
          (avg_pool): AdaptiveAvgPool2d(output_size=1)
          (sigmoid): Sigmoid()
        )
        (PFSA): PFSA(
          (sigmoid): Sigmoid()
        )
        (X7): Conv2d(40, 40, kernel_size=(7, 7), stride=(1, 1), padding=(3, 3), groups=40)
        (conv_last): Conv2d(40, 40, kernel_size=(1, 1), stride=(1, 1))
        (sigmoid): Sigmoid()
      )
      (LFE): MLP(
        (norm): LayerNorm()
        (fc1): Conv2d(40, 80, kernel_size=(1, 1), stride=(1, 1))
        (act): SimpleGate()
        (fc2): Conv2d(40, 40, kernel_size=(1, 1), stride=(1, 1))
      )
      (LKA): GroupGLKA(
        (norm): LayerNorm()
        (LKA7): Conv2d(40, 40, kernel_size=(7, 7), stride=(1, 1), padding=(9, 9), dilation=(3, 3), groups=40)
        (LKA5): Conv2d(40, 40, kernel_size=(5, 5), stride=(1, 1), padding=(4, 4), dilation=(2, 2), groups=40)
        (conv2): Conv2d(40, 40, kernel_size=(5, 5), stride=(1, 1), padding=(2, 2), groups=40)
        (conv3): Conv2d(40, 40, kernel_size=(9, 9), stride=(1, 1), padding=(4, 4), groups=40)
        (conv4): Conv2d(40, 40, kernel_size=(1, 1), stride=(1, 1))
        (conv5): Conv2d(40, 40, kernel_size=(1, 1), stride=(1, 1))
        (conv6): Conv2d(80, 40, kernel_size=(1, 1), stride=(1, 1))
        (atten): LKA(
          (conv0): Conv2d(40, 40, kernel_size=(7, 7), stride=(1, 1), padding=(3, 3), groups=40)
          (conv_spatial): Conv2d(40, 40, kernel_size=(9, 9), stride=(1, 1), padding=(16, 16), dilation=(4, 4), groups=40)
          (conv1): Conv2d(40, 40, kernel_size=(1, 1), stride=(1, 1))
        )
        (act1): Hardswish()
        (act2): Tanh()
      )
      (LFE1): MLP(
        (norm): LayerNorm()
        (fc1): Conv2d(40, 80, kernel_size=(1, 1), stride=(1, 1))
        (act): SimpleGate()
        (fc2): Conv2d(40, 40, kernel_size=(1, 1), stride=(1, 1))
      )
    )
    (3): MAB(
      (HAB): HAB(
        (norm): LayerNorm()
        (conv_first): Conv2d(40, 80, kernel_size=(1, 1), stride=(1, 1))
        (PFCA): PFCA(
          (avg_pool): AdaptiveAvgPool2d(output_size=1)
          (sigmoid): Sigmoid()
        )
        (PFSA): PFSA(
          (sigmoid): Sigmoid()
        )
        (X7): Conv2d(40, 40, kernel_size=(7, 7), stride=(1, 1), padding=(3, 3), groups=40)
        (conv_last): Conv2d(40, 40, kernel_size=(1, 1), stride=(1, 1))
        (sigmoid): Sigmoid()
      )
      (LFE): MLP(
        (norm): LayerNorm()
        (fc1): Conv2d(40, 80, kernel_size=(1, 1), stride=(1, 1))
        (act): SimpleGate()
        (fc2): Conv2d(40, 40, kernel_size=(1, 1), stride=(1, 1))
      )
      (LKA): GroupGLKA(
        (norm): LayerNorm()
        (LKA7): Conv2d(40, 40, kernel_size=(7, 7), stride=(1, 1), padding=(9, 9), dilation=(3, 3), groups=40)
        (LKA5): Conv2d(40, 40, kernel_size=(5, 5), stride=(1, 1), padding=(4, 4), dilation=(2, 2), groups=40)
        (conv2): Conv2d(40, 40, kernel_size=(5, 5), stride=(1, 1), padding=(2, 2), groups=40)
        (conv3): Conv2d(40, 40, kernel_size=(9, 9), stride=(1, 1), padding=(4, 4), groups=40)
        (conv4): Conv2d(40, 40, kernel_size=(1, 1), stride=(1, 1))
        (conv5): Conv2d(40, 40, kernel_size=(1, 1), stride=(1, 1))
        (conv6): Conv2d(80, 40, kernel_size=(1, 1), stride=(1, 1))
        (atten): LKA(
          (conv0): Conv2d(40, 40, kernel_size=(7, 7), stride=(1, 1), padding=(3, 3), groups=40)
          (conv_spatial): Conv2d(40, 40, kernel_size=(9, 9), stride=(1, 1), padding=(16, 16), dilation=(4, 4), groups=40)
          (conv1): Conv2d(40, 40, kernel_size=(1, 1), stride=(1, 1))
        )
        (act1): Hardswish()
        (act2): Tanh()
      )
      (LFE1): MLP(
        (norm): LayerNorm()
        (fc1): Conv2d(40, 80, kernel_size=(1, 1), stride=(1, 1))
        (act): SimpleGate()
        (fc2): Conv2d(40, 40, kernel_size=(1, 1), stride=(1, 1))
      )
    )
    (4): MAB(
      (HAB): HAB(
        (norm): LayerNorm()
        (conv_first): Conv2d(40, 80, kernel_size=(1, 1), stride=(1, 1))
        (PFCA): PFCA(
          (avg_pool): AdaptiveAvgPool2d(output_size=1)
          (sigmoid): Sigmoid()
        )
        (PFSA): PFSA(
          (sigmoid): Sigmoid()
        )
        (X7): Conv2d(40, 40, kernel_size=(7, 7), stride=(1, 1), padding=(3, 3), groups=40)
        (conv_last): Conv2d(40, 40, kernel_size=(1, 1), stride=(1, 1))
        (sigmoid): Sigmoid()
      )
      (LFE): MLP(
        (norm): LayerNorm()
        (fc1): Conv2d(40, 80, kernel_size=(1, 1), stride=(1, 1))
        (act): SimpleGate()
        (fc2): Conv2d(40, 40, kernel_size=(1, 1), stride=(1, 1))
      )
      (LKA): GroupGLKA(
        (norm): LayerNorm()
        (LKA7): Conv2d(40, 40, kernel_size=(7, 7), stride=(1, 1), padding=(9, 9), dilation=(3, 3), groups=40)
        (LKA5): Conv2d(40, 40, kernel_size=(5, 5), stride=(1, 1), padding=(4, 4), dilation=(2, 2), groups=40)
        (conv2): Conv2d(40, 40, kernel_size=(5, 5), stride=(1, 1), padding=(2, 2), groups=40)
        (conv3): Conv2d(40, 40, kernel_size=(9, 9), stride=(1, 1), padding=(4, 4), groups=40)
        (conv4): Conv2d(40, 40, kernel_size=(1, 1), stride=(1, 1))
        (conv5): Conv2d(40, 40, kernel_size=(1, 1), stride=(1, 1))
        (conv6): Conv2d(80, 40, kernel_size=(1, 1), stride=(1, 1))
        (atten): LKA(
          (conv0): Conv2d(40, 40, kernel_size=(7, 7), stride=(1, 1), padding=(3, 3), groups=40)
          (conv_spatial): Conv2d(40, 40, kernel_size=(9, 9), stride=(1, 1), padding=(16, 16), dilation=(4, 4), groups=40)
          (conv1): Conv2d(40, 40, kernel_size=(1, 1), stride=(1, 1))
        )
        (act1): Hardswish()
        (act2): Tanh()
      )
      (LFE1): MLP(
        (norm): LayerNorm()
        (fc1): Conv2d(40, 80, kernel_size=(1, 1), stride=(1, 1))
        (act): SimpleGate()
        (fc2): Conv2d(40, 40, kernel_size=(1, 1), stride=(1, 1))
      )
    )
    (5): MAB(
      (HAB): HAB(
        (norm): LayerNorm()
        (conv_first): Conv2d(40, 80, kernel_size=(1, 1), stride=(1, 1))
        (PFCA): PFCA(
          (avg_pool): AdaptiveAvgPool2d(output_size=1)
          (sigmoid): Sigmoid()
        )
        (PFSA): PFSA(
          (sigmoid): Sigmoid()
        )
        (X7): Conv2d(40, 40, kernel_size=(7, 7), stride=(1, 1), padding=(3, 3), groups=40)
        (conv_last): Conv2d(40, 40, kernel_size=(1, 1), stride=(1, 1))
        (sigmoid): Sigmoid()
      )
      (LFE): MLP(
        (norm): LayerNorm()
        (fc1): Conv2d(40, 80, kernel_size=(1, 1), stride=(1, 1))
        (act): SimpleGate()
        (fc2): Conv2d(40, 40, kernel_size=(1, 1), stride=(1, 1))
      )
      (LKA): GroupGLKA(
        (norm): LayerNorm()
        (LKA7): Conv2d(40, 40, kernel_size=(7, 7), stride=(1, 1), padding=(9, 9), dilation=(3, 3), groups=40)
        (LKA5): Conv2d(40, 40, kernel_size=(5, 5), stride=(1, 1), padding=(4, 4), dilation=(2, 2), groups=40)
        (conv2): Conv2d(40, 40, kernel_size=(5, 5), stride=(1, 1), padding=(2, 2), groups=40)
        (conv3): Conv2d(40, 40, kernel_size=(9, 9), stride=(1, 1), padding=(4, 4), groups=40)
        (conv4): Conv2d(40, 40, kernel_size=(1, 1), stride=(1, 1))
        (conv5): Conv2d(40, 40, kernel_size=(1, 1), stride=(1, 1))
        (conv6): Conv2d(80, 40, kernel_size=(1, 1), stride=(1, 1))
        (atten): LKA(
          (conv0): Conv2d(40, 40, kernel_size=(7, 7), stride=(1, 1), padding=(3, 3), groups=40)
          (conv_spatial): Conv2d(40, 40, kernel_size=(9, 9), stride=(1, 1), padding=(16, 16), dilation=(4, 4), groups=40)
          (conv1): Conv2d(40, 40, kernel_size=(1, 1), stride=(1, 1))
        )
        (act1): Hardswish()
        (act2): Tanh()
      )
      (LFE1): MLP(
        (norm): LayerNorm()
        (fc1): Conv2d(40, 80, kernel_size=(1, 1), stride=(1, 1))
        (act): SimpleGate()
        (fc2): Conv2d(40, 40, kernel_size=(1, 1), stride=(1, 1))
      )
    )
    (6): MAB(
      (HAB): HAB(
        (norm): LayerNorm()
        (conv_first): Conv2d(40, 80, kernel_size=(1, 1), stride=(1, 1))
        (PFCA): PFCA(
          (avg_pool): AdaptiveAvgPool2d(output_size=1)
          (sigmoid): Sigmoid()
        )
        (PFSA): PFSA(
          (sigmoid): Sigmoid()
        )
        (X7): Conv2d(40, 40, kernel_size=(7, 7), stride=(1, 1), padding=(3, 3), groups=40)
        (conv_last): Conv2d(40, 40, kernel_size=(1, 1), stride=(1, 1))
        (sigmoid): Sigmoid()
      )
      (LFE): MLP(
        (norm): LayerNorm()
        (fc1): Conv2d(40, 80, kernel_size=(1, 1), stride=(1, 1))
        (act): SimpleGate()
        (fc2): Conv2d(40, 40, kernel_size=(1, 1), stride=(1, 1))
      )
      (LKA): GroupGLKA(
        (norm): LayerNorm()
        (LKA7): Conv2d(40, 40, kernel_size=(7, 7), stride=(1, 1), padding=(9, 9), dilation=(3, 3), groups=40)
        (LKA5): Conv2d(40, 40, kernel_size=(5, 5), stride=(1, 1), padding=(4, 4), dilation=(2, 2), groups=40)
        (conv2): Conv2d(40, 40, kernel_size=(5, 5), stride=(1, 1), padding=(2, 2), groups=40)
        (conv3): Conv2d(40, 40, kernel_size=(9, 9), stride=(1, 1), padding=(4, 4), groups=40)
        (conv4): Conv2d(40, 40, kernel_size=(1, 1), stride=(1, 1))
        (conv5): Conv2d(40, 40, kernel_size=(1, 1), stride=(1, 1))
        (conv6): Conv2d(80, 40, kernel_size=(1, 1), stride=(1, 1))
        (atten): LKA(
          (conv0): Conv2d(40, 40, kernel_size=(7, 7), stride=(1, 1), padding=(3, 3), groups=40)
          (conv_spatial): Conv2d(40, 40, kernel_size=(9, 9), stride=(1, 1), padding=(16, 16), dilation=(4, 4), groups=40)
          (conv1): Conv2d(40, 40, kernel_size=(1, 1), stride=(1, 1))
        )
        (act1): Hardswish()
        (act2): Tanh()
      )
      (LFE1): MLP(
        (norm): LayerNorm()
        (fc1): Conv2d(40, 80, kernel_size=(1, 1), stride=(1, 1))
        (act): SimpleGate()
        (fc2): Conv2d(40, 40, kernel_size=(1, 1), stride=(1, 1))
      )
    )
    (7): MAB(
      (HAB): HAB(
        (norm): LayerNorm()
        (conv_first): Conv2d(40, 80, kernel_size=(1, 1), stride=(1, 1))
        (PFCA): PFCA(
          (avg_pool): AdaptiveAvgPool2d(output_size=1)
          (sigmoid): Sigmoid()
        )
        (PFSA): PFSA(
          (sigmoid): Sigmoid()
        )
        (X7): Conv2d(40, 40, kernel_size=(7, 7), stride=(1, 1), padding=(3, 3), groups=40)
        (conv_last): Conv2d(40, 40, kernel_size=(1, 1), stride=(1, 1))
        (sigmoid): Sigmoid()
      )
      (LFE): MLP(
        (norm): LayerNorm()
        (fc1): Conv2d(40, 80, kernel_size=(1, 1), stride=(1, 1))
        (act): SimpleGate()
        (fc2): Conv2d(40, 40, kernel_size=(1, 1), stride=(1, 1))
      )
      (LKA): GroupGLKA(
        (norm): LayerNorm()
        (LKA7): Conv2d(40, 40, kernel_size=(7, 7), stride=(1, 1), padding=(9, 9), dilation=(3, 3), groups=40)
        (LKA5): Conv2d(40, 40, kernel_size=(5, 5), stride=(1, 1), padding=(4, 4), dilation=(2, 2), groups=40)
        (conv2): Conv2d(40, 40, kernel_size=(5, 5), stride=(1, 1), padding=(2, 2), groups=40)
        (conv3): Conv2d(40, 40, kernel_size=(9, 9), stride=(1, 1), padding=(4, 4), groups=40)
        (conv4): Conv2d(40, 40, kernel_size=(1, 1), stride=(1, 1))
        (conv5): Conv2d(40, 40, kernel_size=(1, 1), stride=(1, 1))
        (conv6): Conv2d(80, 40, kernel_size=(1, 1), stride=(1, 1))
        (atten): LKA(
          (conv0): Conv2d(40, 40, kernel_size=(7, 7), stride=(1, 1), padding=(3, 3), groups=40)
          (conv_spatial): Conv2d(40, 40, kernel_size=(9, 9), stride=(1, 1), padding=(16, 16), dilation=(4, 4), groups=40)
          (conv1): Conv2d(40, 40, kernel_size=(1, 1), stride=(1, 1))
        )
        (act1): Hardswish()
        (act2): Tanh()
      )
      (LFE1): MLP(
        (norm): LayerNorm()
        (fc1): Conv2d(40, 80, kernel_size=(1, 1), stride=(1, 1))
        (act): SimpleGate()
        (fc2): Conv2d(40, 40, kernel_size=(1, 1), stride=(1, 1))
      )
    )
  )
  (body_t): Conv2d(40, 40, kernel_size=(3, 3), stride=(1, 1), padding=(1, 1))
  (tail): Sequential(
    (0): Conv2d(40, 48, kernel_size=(3, 3), stride=(1, 1), padding=(1, 1))
    (1): PixelShuffle(upscale_factor=4)
  )
  (add_mean): MeanShift(3, 3, kernel_size=(1, 1), stride=(1, 1))
)
2023-08-02 09:55:35,095 INFO: Loading GLAN model from /home/YXK/BasicSR/BasicSR-master/experiments/GLAN_tiny11_single mult_×4/models/net_g_908000.pth, with param key: [params_ema].
2023-08-02 09:55:36,211 INFO: Model [SRModel] is created.
…
